Model_L63_RK11_h_04_.pt (torch_old, 5376 bytes, 15 tensors)

a f4 [3, 11, 11]
0	0x00000000	0.0
1	0x00000000	0.0
2	0x00000000	0.0
3	0x00000000	0.0
4	0x00000000	0.0
5	0x00000000	0.0
6	0x00000000	0.0
7	0x00000000	0.0
8	0x00000000	0.0
9	0x00000000	0.0
10	0x00000000	0.0
11	0x000002fc	1.07e-42
12	0x00000000	0.0
13	0x00000000	0.0
14	0x00000000	0.0
15	0x00000000	0.0
16	0x00000000	0.0
17	0x00000000	0.0
18	0x00000000	0.0
19	0x00000000	0.0
20	0x00000000	0.0
21	0x00000000	0.0
22	0x000009cf	3.519e-42
23	0xbda0ab51	-0.07845176
24	0x00000000	0.0
25	0x00000000	0.0
26	0x00000000	0.0
27	0x00000000	0.0
28	0x00000000	0.0
29	0x00000000	0.0
30	0x00000000	0.0
31	0x00000000	0.0
32	0x00000000	0.0
33	0x000007e9	2.838e-42
34	0xbd1ab831	-0.037773315
35	0xbea53c8e	-0.32272762
36	0x00000000	0.0
37	0x00000000	0.0
38	0x00000000	0.0
39	0x00000000	0.0
40	0x00000000	0.0
41	0x00000000	0.0
42	0x00000000	0.0
43	0x00000000	0.0
44	0x00000272	8.77e-43
45	0xbe3d7d0c	-0.18504733
46	0x3dedef94	0.116179615
47	0x3f086e41	0.53293234
48	0x00000000	0.0
49	0x00000000	0.0
50	0x00000000	0.0
51	0x00000000	0.0
52	0x00000000	0.0
53	0x00000000	0.0
54	0x00000000	0.0
55	0x80000637	-2.23e-42
56	0x3e463843	0.193574
57	0xbdb1dbbd	-0.0868449
58	0xbe330d17	-0.17485462
59	0xbe35ebd2	-0.1776574
60	0x00000000	0.0
61	0x00000000	0.0
62	0x00000000	0.0
63	0x00000000	0.0
64	0x00000000	0.0
65	0x00000000	0.0
66	0x800003af	-1.321e-42
67	0xbd139dfa	-0.03603933
68	0xbcb31453	-0.021860277
69	0xbe36b10e	-0.17840979
70	0xbdcd9b92	-0.10039438
71	0x3ec066fd	0.37578574
72	0x00000000	0.0
73	0x00000000	0.0
74	0x00000000	0.0
75	0x00000000	0.0
76	0x00000000	0.0
77	0x00000a0f	3.608e-42
78	0xbd449952	-0.04799778
79	0x3d3b6a34	0.04575558
80	0xbdfdc3fd	-0.123908974
81	0xbe3e3011	-0.18573023
82	0x3e9aa667	0.3020508
83	0x3ec18e48	0.37803864
84	0x00000000	0.0
85	0x00000000	0.0
86	0x00000000	0.0
87	0x00000000	0.0
88	0x80000053	-1.16e-43
89	0xbd1964d7	-0.037449684
90	0x3b0913e0	0.0020916387
91	0x3d54ca12	0.05195052
92	0xbd81b6e4	-0.06333712
93	0x3e2f0132	0.170903
94	0x3e646025	0.22302301
95	0x3ece7444	0.4032308
96	0x00000000	0.0
97	0x00000000	0.0
98	0x00000000	0.0
99	0x80000208	-7.29e-43
100	0x3df527fe	0.119705185
101	0xbdee9281	-0.11649037
102	0xbd1fa48c	-0.038975284
103	0x3c3db9c9	0.011579939
104	0x3dd9eca2	0.10640837
105	0x3df092f2	0.117467776
106	0x3ea37053	0.31921634
107	0xbdffa8a0	-0.124833345
108	0x00000000	0.0
109	0x00000000	0.0
110	0x80000652	-2.267e-42
111	0xbd8bf0e9	-0.06833059
112	0x3d3c6d84	0.04600288
113	0xbd1f22c9	-0.038851533
114	0x3cbc9c40	0.023023725
115	0x3dbccc32	0.09218635
116	0x3dab41b6	0.08362143
117	0x3e420d55	0.18950398
118	0xbd68c702	-0.056830414
119	0x3ea7d475	0.3277928
120	0x00000000	0.0
121	0x00000000	0.0
122	0x00000000	0.0
123	0x00000000	0.0
124	0x00000000	0.0
125	0x00000000	0.0
126	0x00000000	0.0
127	0x00000000	0.0
128	0x00000000	0.0
129	0x00000000	0.0
130	0x00000000	0.0
131	0x00000000	0.0
132	0x80000b6c	-4.097e-42
133	0x00000000	0.0
134	0x00000000	0.0
135	0x00000000	0.0
136	0x00000000	0.0
137	0x00000000	0.0
138	0x00000000	0.0
139	0x00000000	0.0
140	0x00000000	0.0
141	0x00000000	0.0
142	0x00000000	0.0
143	0x00000914	3.257e-42
144	0x3eb46d45	0.35239616
145	0x00000000	0.0
146	0x00000000	0.0
147	0x00000000	0.0
148	0x00000000	0.0
149	0x00000000	0.0
150	0x00000000	0.0
151	0x00000000	0.0
152	0x00000000	0.0
153	0x00000000	0.0
154	0x8000075b	-2.639e-42
155	0x3e48e156	0.19617209
156	0xbebfa284	-0.37428677
157	0x00000000	0.0
158	0x00000000	0.0
159	0x00000000	0.0
160	0x00000000	0.0
161	0x00000000	0.0
162	0x00000000	0.0
163	0x00000000	0.0
164	0x00000000	0.0
165	0x80000c01	-4.306e-42
166	0x3debaf3d	0.115080334
167	0xbe682c87	-0.22673236
168	0xbed17873	-0.40912208
169	0x00000000	0.0
170	0x00000000	0.0
171	0x00000000	0.0
172	0x00000000	0.0
173	0x00000000	0.0
174	0x00000000	0.0
175	0x00000000	0.0
176	0x00000a88	3.778e-42
177	0xbc1f0ce0	-0.0097076595
178	0xbddcf7ed	-0.107894756
179	0x3e34b111	0.1764567
180	0x3f22df70	0.6362219
181	0x00000000	0.0
182	0x00000000	0.0
183	0x00000000	0.0
184	0x00000000	0.0
185	0x00000000	0.0
186	0x00000000	0.0
187	0x800004a9	-1.672e-42
188	0x3cc80dfe	0.024420734
189	0x3e198c36	0.14994892
190	0x3da6256f	0.08112609
191	0x3ed49650	0.4152093
192	0xbea25e87	-0.31712744
193	0x00000000	0.0
194	0x00000000	0.0
195	0x00000000	0.0
196	0x00000000	0.0
197	0x00000000	0.0
198	0x80000a1e	-3.63e-42
199	0x3db69265	0.08914641
200	0x3e036cb3	0.12834434
201	0x3d202fbd	0.039108027
202	0x3e8b6638	0.27226424
203	0xbe9636e8	-0.29338765
204	0xbec3ce27	-0.3824322
205	0x00000000	0.0
206	0x00000000	0.0
207	0x00000000	0.0
208	0x00000000	0.0
209	0x80000145	-4.55e-43
210	0x3dfe0340	0.12402964
211	0x3d33056a	0.043706335
212	0xbe7380e3	-0.23779635
213	0x3cd90123	0.0264898
214	0x3e1d814f	0.15381359
215	0x3e5af660	0.21383047
216	0xbbb4bf7d	-0.0055159912
217	0x00000000	0.0
218	0x00000000	0.0
219	0x00000000	0.0
220	0x00000581	1.974e-42
221	0xbc15e900	-0.00914979
222	0x3d4914ad	0.049091984
223	0x3d8d0377	0.068854265
224	0x3e0d0458	0.13771188
225	0xbdfbb438	-0.122902334
226	0xbd63cb0f	-0.055613574
227	0xbf124694	-0.57138944
228	0x3e034f44	0.12823206
229	0x00000000	0.0
230	0x00000000	0.0
231	0x80000134	-4.32e-43
232	0x3d0a5bb0	0.033778846
233	0xbdd235f6	-0.102641985
234	0xbddce808	-0.10786444
235	0xbcb72971	-0.022358628
236	0x3c3b77a9	0.011442103
237	0x3d6cd678	0.05782172
238	0xbd7b6e57	-0.061384525
239	0x3e389aff	0.18027876
240	0x3f0da1b2	0.5532485
241	0x00000000	0.0
242	0x00000000	0.0
243	0x00000000	0.0
244	0x00000000	0.0
245	0x00000000	0.0
246	0x00000000	0.0
247	0x00000000	0.0
248	0x00000000	0.0
249	0x00000000	0.0
250	0x00000000	0.0
251	0x00000000	0.0
252	0x00000000	0.0
253	0x80000c77	-4.472e-42
254	0x00000000	0.0
255	0x00000000	0.0

b f4 [3, 11]
0	0x3e7243cb	0.23658673
1	0x3a9bf526	0.0011898621
2	0x3d203a78	0.03911826
3	0x38c17c90	9.226159e-05
4	0x3e9d84f7	0.30765507
5	0x3c63b9ed	0.013899309
6	0x3bb4b5c6	0.005514833
7	0x3c9ac035	0.01889048
8	0x39d4651f	0.00040511132
9	0x3ec0852a	0.37601596
10	0x3a25b623	0.0006321391
11	0x3b463b6e	0.0030247825
12	0x3d412d3e	0.047162287
13	0x3b9aaf2e	0.00472059
14	0x3d8fd96f	0.07023894
15	0x3af08ced	0.0018352546
16	0x3ddf9534	0.1091713
17	0x3bdd57ff	0.0067548747
18	0x3b67ba8b	0.003535899
19	0x3e0debcf	0.13859485
20	0x3bb08a96	0.0053876145
21	0x3f1c0d05	0.60957366
22	0x3944da7b	0.00018773407
23	0x3ec0ec17	0.37680122
24	0x39924607	0.00027899464
25	0x3a89387d	0.0010469105
26	0x3cef33a2	0.029199425
27	0x3bbb59e5	0.0057175034
28	0x3e7763bd	0.24159141
29	0x3d8713b9	0.06595559
30	0x3a9ea26c	0.0012102849
31	0x3da788d3	0.08180394
32	0x3e48ea77	0.19620691

c f4 [3, 11]
0	0x00000000	0.0
1	0x3dbe1fcf	0.09283411
2	0x3e0f8587	0.1401578
3	0x3e15a460	0.14613485
4	0x3e15ca0e	0.14627859
5	0x3e174196	0.14771113
6	0x3e1e6b0f	0.15470527
7	0x3e234681	0.15944864
8	0x3e320149	0.17383303
9	0x3ea43627	0.32072565
10	0x3f2889fb	0.6583554
11	0x00000000	0.0
12	0x3a882e20	0.0010389723
13	0x3ea130a4	0.31482422
14	0x3ea145cc	0.31498563
15	0x3ea2616e	0.31714958
16	0x3ea33b6a	0.31881267
17	0x3ea36305	0.31911483
18	0x3ea49651	0.32145932
19	0x3ea951c5	0.33070198
20	0x3ead3e1f	0.33836457
21	0x3f800000	1.0
22	0x00000000	0.0
23	0x3e693855	0.22775395
24	0x3e695df5	0.22789748
25	0x3e69f119	0.22845878
26	0x3e74f460	0.23921347
27	0x3e752558	0.23940027
28	0x3e8f6158	0.28003955
29	0x3e933f50	0.2875924
30	0x3e943901	0.2894974
31	0x3e95b991	0.29243138
32	0x3e986ecf	0.2977204

Dyn_net.linearCell.weight f4 [3, 3]
0	0xbfbfd04d	-1.4985443
1	0xbfafea82	-1.3743441
2	0xbda64e50	-0.08120406
3	0x3c31f0fa	0.010860676
4	0x3c105718	0.008809827
5	0xbb30397e	-0.0026889737
6	0xbf50dea7	-0.8158974
7	0xbf258c00	-0.6466675
8	0x3e116854	0.14199954

Dyn_net.linearCell.bias f4 [3]
0	0xbc5a8c50	-0.013339117
1	0xbc088550	-0.008332565
2	0xbbde7dec	-0.0067899134

Dyn_net.BlinearCell1.0.weight f4 [1, 3]
0	0x3e06c4f2	0.13161066
1	0xbe905276	-0.28187913
2	0xbedaca02	-0.42732245

Dyn_net.BlinearCell1.1.weight f4 [1, 3]
0	0x3eb9e331	0.36306146
1	0x3e9762e4	0.29567635
2	0xbee447f1	-0.44586137

Dyn_net.BlinearCell1.2.weight f4 [1, 3]
0	0xbeed9a38	-0.46406722
1	0xbebfc662	-0.37456042
2	0xbecc3201	-0.398819

Dyn_net.BlinearCell2.0.weight f4 [1, 3]
0	0x3eeef554	0.46671546
1	0x3ec05a3b	0.3756884
2	0xbe1db45d	-0.15400834

Dyn_net.BlinearCell2.1.weight f4 [1, 3]
0	0x3e7b8353	0.24561815
1	0xbf0c2bb6	-0.547542
2	0xbe6624ef	-0.22475027

Dyn_net.BlinearCell2.2.weight f4 [1, 3]
0	0x3e8a555f	0.27018258
1	0xbf1745c2	-0.59090817
2	0x3eb1a58f	0.34696624

Dyn_net.transLayers.0.weight f4 [3, 6]
0	0x3f8d87be	1.105705
1	0x3be20cdc	0.0068985056
2	0x3f3770ed	0.71656686
3	0xbea64897	-0.32477257
4	0x3d55b061	0.05217016
5	0xbf214fa5	-0.6301215
6	0xbf9ed80e	-1.2409685
7	0xbbbc8009	-0.0057525677
8	0xbef3bbb5	-0.47604147
9	0x3ee17d42	0.44040877
10	0x3ed75d4f	0.42063376
11	0xbec28997	-0.37995598
12	0x3f784843	0.9698526
13	0x3bfd8ff6	0.0077381087
14	0x3f153950	0.58290577
15	0x3e0071d8	0.12543428
16	0x3ed534f9	0.41641977
17	0xbd5ab8f1	-0.05339903

Dyn_net.transLayers.0.bias f4 [3]
0	0xbb9cca8a	-0.0047848867
1	0x3cca87c6	0.024722945
2	0x3b1f573e	0.0024313475

Dyn_net.outputLayer.weight f4 [3, 3]
0	0xbf773160	-0.96559715
1	0x3f298145	0.66212875
2	0xbe68c21c	-0.22730297
3	0x3f8516b8	1.0397558
4	0xbf8b41c1	-1.0879441
5	0x3f86a76c	1.0519843
6	0xbecc0ed9	-0.39855078
7	0xbf3e2e65	-0.7428954
8	0xbecbecce	-0.39829105

Dyn_net.outputLayer.bias f4 [3]
0	0x3bc9c7c6	0.006157848
1	0xbb7501a7	-0.0037385018
2	0xbc459811	-0.012060181
